NAO/best_model_dk20_darcy_gtou_small.ckpt (torch, 314781 bytes, 22 tensors)

kernel.layers.0.weight f4 [32, 4]
0	0x3d0438a1	0.032280568
1	0x3f001258	0.5002799
2	0xbe65fb13	-0.22459058
3	0x3f0c43da	0.54791033
4	0x3d4a6edb	0.049422126
5	0x3fa2ada6	1.2709243
6	0xbf92070b	-1.1408399
7	0xbd9da2a5	-0.076970376
8	0xbd282cbd	-0.04105829
9	0x3d3b3040	0.04570031
10	0x3eac476b	0.33648238
11	0xbf3a7b83	-0.72844714
12	0xbf93b2ca	-1.1538937
13	0x3d5b5b7b	0.05355404
14	0xbc06aabf	-0.00821942
15	0xbf585475	-0.8450387
16	0xbe0243a0	-0.1272111
17	0x3f8ff698	1.124713
18	0x3f37090c	0.7149818
19	0x3e056a54	0.13028842
20	0xb9b1a9e1	-0.0003388664
21	0x397a4d93	0.00023870757
22	0x392529f9	0.00015751262
23	0xba2dadb5	-0.00066253106
24	0x3d195ac0	0.03744006
25	0xbd1c5c13	-0.038173746
26	0xbe8d14d7	-0.27554962
27	0x3f5178ea	0.81825125
28	0xbe0bd6cb	-0.13656156
29	0x3c5459bb	0.012960847
30	0x3d60ed25	0.05491366
31	0x3f977f3a	1.1835701
32	0x3f2ae14b	0.6675002
33	0x3c819f4d	0.01582303
34	0xbc167071	-0.009182082
35	0x3f74b7cb	0.95592946
36	0xbf9ad60b	-1.2096571
37	0xbce1024f	-0.027466921
38	0x3d6c6ee9	0.05772296
39	0x3f88b6e1	1.068081
40	0x3f6cfdfd	0.92575055
41	0xbf24286e	-0.6412419
42	0x3f22a70c	0.63536143
43	0xbf69a69a	-0.9126984
44	0x3825006d	3.9339462e-05
45	0xb8f92a6a	-0.000118811455
46	0x39269f47	0.00015890329
47	0xba80a7ed	-0.0009815671
48	0xbf80fa50	-1.0076389
49	0x3f53bb3d	0.8270758
50	0xbf4df873	-0.8045723
51	0x3f7ee254	0.995641
52	0x39c75daf	0.00038026038
53	0x371c4bf1	9.316006e-06
54	0xba4374bd	-0.0007456055
55	0x3a390dfc	0.0007059274
56	0x3ebf3b9d	0.3735017
57	0x3edab304	0.42714703
58	0xbeeb1e58	-0.45921588
59	0xbebab931	-0.36469415
60	0xb87f4985	-6.0865208e-05
61	0x385cd7e9	5.265317e-05
62	0xb78f6fd5	-1.7099004e-05
63	0x394facb1	0.00019805391
64	0xb7e43502	-2.7204402e-05
65	0x386bf958	5.6260586e-05
66	0xb7708d04	-1.43379475e-05
67	0x36802e82	3.8201115e-06
68	0xbdde1ff0	-0.10845935
69	0x3e1dcfcb	0.15411298
70	0xbe652800	-0.2237854
71	0xbed0730b	-0.4071277
72	0x3f0db5ff	0.5535583
73	0xbd4fd474	-0.05073972
74	0x3d9b0e37	0.07571071
75	0x3ccb4a0d	0.024815584
76	0xbbbf0fa8	-0.005830724
77	0xbb60300b	-0.0034208323
78	0x3baba7eb	0.0052385232
79	0xbb9de5c4	-0.00481865
80	0xbc4df4f2	-0.012570607
81	0x3c456796	0.012048623
82	0xbf35bb4a	-0.70988905
83	0xbe9f8c88	-0.31161904
84	0x3e093bde	0.13401744
85	0xbe1b6414	-0.15174896
86	0x3e08b24a	0.13349262
87	0xbf88775e	-1.0661428
88	0xb881bc3e	-6.186262e-05
89	0x39bda435	0.00036171233
90	0x3950b8d9	0.00019905287
91	0x38fd21a3	0.000120702454
92	0xbd0a1182	-0.033708103
93	0x3cf53620	0.029933035
94	0x3f6703c2	0.9024011
95	0x3e80dd97	0.2516906
96	0xbed4888e	-0.41510433
97	0xbdd4942c	-0.10379824
98	0xbf57921d	-0.84207326
99	0x3ece6dc0	0.40318108
100	0x3d88f0c4	0.066865474
101	0xbf02be92	-0.5107204
102	0xbfa0c812	-1.2561057
103	0xbd02443e	-0.031803362
104	0xbd6a7398	-0.057239145
105	0xbf9bda01	-1.2175905
106	0x3f8e16a2	1.1100657
107	0x3daab408	0.083351195
108	0x3e4c63d3	0.19959955
109	0x3dcb2773	0.09919634
110	0xbf5db4a3	-0.86603755
111	0xbeba62d9	-0.3640354
112	0xbf21614e	-0.630391
113	0xbf286f97	-0.6579527
114	0x3f2aa3a9	0.66655976
115	0x3f226053	0.6342823
116	0xbbfd4d9f	-0.0077302004
117	0xbdeff997	-0.11717527
118	0x3f82e449	1.0225917
119	0xbbb49db1	-0.0055119623
120	0x3f9befc6	1.2182548
121	0x3f2f647a	0.6851269
122	0xbf2963e5	-0.6616805
123	0xbf920789	-1.140855
124	0xbf71271d	-0.9420031
125	0x3d385422	0.04500211
126	0xbced6cae	-0.028982487
127	0x3e0cdaf7	0.13755403

kernel.layers.0.bias f4 [32]
0	0xbeac0e45	-0.33604637
1	0xbe1b4547	-0.15163146
2	0xbe01e541	-0.1268511
3	0xbfc6f780	-1.5544281
4	0xbfaad87f	-1.3347319
5	0xbb4499d0	-0.0029998906
6	0xbe179a28	-0.148049
7	0xbf5ade59	-0.85495526
8	0xbfa2d01a	-1.2719758
9	0xbddc907b	-0.10769745
10	0xbd93bfcf	-0.07214319
11	0xbbb25fd3	-0.005443552
12	0xbe221d77	-0.15831552
13	0xbb70d753	-0.0036749437
14	0x3eacf5d7	0.3378131
15	0xba627849	-0.00086391397
16	0xb9576963	-0.00020543257
17	0xbec04d41	-0.3755894
18	0xbeb51637	-0.3536851
19	0xbcd8bfaf	-0.02645859
20	0xbe08df9a	-0.13366547
21	0xbf64a19e	-0.8930911
22	0xbbf91bf9	-0.0076022116
23	0xbe23ea04	-0.16007239
24	0xbf42fa7c	-0.7616346
25	0xbfb9387f	-1.4470366
26	0xbdacf081	-0.0844431
27	0xbf24d8e4	-0.6439345
28	0xbe5326ed	-0.20620318
29	0xbf56d43c	-0.83917594
30	0xbdb5015a	-0.088381484
31	0xbf0c305f	-0.5476131

kernel.layers.2.weight f4 [64, 32]
0	0x3a23aaa4	0.0006243384
1	0xbc952508	-0.018206134
2	0xbbb2c462	-0.0054555396
3	0xbaa3c985	-0.0012495971
4	0xba5a5756	-0.0008329054
5	0xb7c7bd69	-2.381085e-05
6	0x3b1cacb4	0.002390665
7	0xba109a87	-0.00055161904
8	0xb962919e	-0.00021607286
9	0x3b9a3d33	0.0047070025
10	0xbb152b3f	-0.0022761372
11	0xb814e001	-3.549457e-05
12	0xbc0f3ae1	-0.008742065
13	0x368af5d5	4.141339e-06
14	0xbc75554d	-0.014973951
15	0x35e1a3aa	1.6811439e-06
16	0xb625aadc	-2.468637e-06
17	0xbb3cb3cb	-0.0028793688
18	0x3ab8afb6	0.0014090452
19	0x382ef811	4.1715863e-05
20	0xbc3186a0	-0.01083532
21	0x3a39ceac	0.00070879865
22	0xb8011002	-3.0770905e-05
23	0xbb499a0a	-0.003076198
24	0x3a3e573c	0.0007260924
25	0x398ac6e5	0.000264696
26	0xbb2967eb	-0.0025849293
27	0xbba718a8	-0.005099375
28	0xbb227e62	-0.0024794568
29	0xbb563a2b	-0.003268848
30	0xbc862629	-0.016375618
31	0xb91f7701	-0.00015207754
32	0xb6b23833	-5.311356e-06
33	0x385c7b16	5.256672e-05
34	0x37835d70	1.5659927e-05
35	0x35ad91c5	1.2931929e-06
36	0x362111e8	2.4001292e-06
37	0xb3dea1c8	-1.03671084e-07
38	0x358c002d	1.0430864e-06
39	0xb5d64f46	-1.5967314e-06
40	0xb5a0b8a4	-1.1974666e-06
41	0xb8472a8f	-4.7484933e-05
42	0x383418ba	4.2938373e-05
43	0xb47fbc2b	-2.3817181e-07
44	0x3714d4b0	8.871008e-06
45	0x331842fa	3.5451173e-08
46	0x38a3613d	7.790558e-05
47	0xb2995d56	-1.7853989e-08
48	0xb1a3ee1c	-4.7709943e-09
49	0x364a496f	3.014309e-06
50	0xb60e86dc	-2.1238147e-06
51	0x34ec0ff0	4.3970022e-07
52	0x37ada24d	2.0698784e-05
53	0x36342c3e	2.6847842e-06
54	0xb4e8d703	-4.336981e-07
55	0x3769a000	1.3925135e-05
56	0x35248a90	6.1296396e-07
57	0xb68e4313	-4.2397382e-06
58	0x370a43af	8.2412e-06
59	0x36e5edbf	6.852409e-06
60	0x37c5c3b0	2.3575354e-05
61	0x367991ed	3.7188831e-06
62	0xb8c38b1e	-9.324237e-05
63	0xb65093f9	-3.1080547e-06
64	0xba3ccc3f	-0.0007202066
65	0xbabf8064	-0.0014610407
66	0x3b0fc23f	0.0021935848
67	0x3a250084	0.00062943273
68	0x39bdf00b	0.00036227735
69	0x3721a88b	9.63559e-06
70	0xbabaaa5a	-0.0014241443
71	0xba265871	-0.0006345576
72	0x391835d9	0.0001451591
73	0xbc444cc1	-0.01198119
74	0xbb687b42	-0.0035473858
75	0x383c5715	4.4903794e-05
76	0xbc3da498	-0.011574887
77	0x37731050	1.4487727e-05
78	0x38caee5e	9.67651e-05
79	0xb539e180	-6.9246016e-07
80	0xb3b47844	-8.4037794e-08
81	0x3a894bf0	0.0010474902
82	0xba4f9643	-0.0007918814
83	0x3765903c	1.3683046e-05
84	0x3b90d099	0.004419398
85	0xb993396c	-0.00028080808
86	0x3881ad4f	6.1834806e-05
87	0x3a4a9b86	0.0007728863
88	0xb9966908	-0.00028688484
89	0x38e1a517	0.000107595864
90	0xba3fa535	-0.00073106895
91	0x3b16086e	0.0022893208
92	0xb9bac15d	-0.0003562075
93	0x3a195bc3	0.00058501604
94	0x3b9168e9	0.004437555
95	0xb98e85a7	-0.0002718393
96	0xbb23e4a9	-0.0025008118
97	0xbc2cffc3	-0.010559025
98	0x3bcfb49f	0.0063386704
99	0x3a5a8b98	0.0008336841
100	0x3a3979f5	0.0007075363
101	0xb650710b	-3.1060215e-06
102	0xbb94279e	-0.0045213243
103	0xba3e8bca	-0.0007268755
104	0x393e48b3	0.00018146895
105	0xbc930b0b	-0.017949602
106	0x3ba4e287	0.005031887
107	0xb6d0375b	-6.2053273e-06
108	0xba33b405	-0.0006855133
109	0x377d65ee	1.51037075e-05
110	0xbbf3ad50	-0.007436432
111	0xb5ab91bb	-1.2782906e-06
112	0x3488d3ac	2.5485986e-07
113	0x3aa662bb	0.0012694219
114	0xba7a4d6b	-0.00095482793
115	0xb7633e54	-1.3544766e-05
116	0x3c17a78d	0.009256256
117	0xb9cd2bdf	-0.00039133333
118	0x37dcc76a	2.6318903e-05
119	0x39dea318	0.00042464654
120	0xb9d04947	-0.00039727447
121	0x3798caee	1.8214309e-05
122	0xbbf980f5	-0.00761425
123	0x3b4e07ec	0.0031437827
124	0xbc03b41d	-0.008038548
125	0x3a863300	0.0010238588
126	0xbc3eab58	-0.011637531
127	0xb99d92c0	-0.0003005471
128	0x3a0679f7	0.00051298685
129	0xbc3455d2	-0.011006789
130	0xbb266ed6	-0.0025395653
131	0xba5fef76	-0.00085424574
132	0xba6841ad	-0.0008859884
133	0xb790a775	-1.7244116e-05
134	0x393a3f04	0.00017761817
135	0x39cdb8c8	0.0003923832
136	0xb924c37b	-0.00015713081
137	0x3b0e18dc	0.0021682298
138	0xba0df489	-0.0005415162
139	0xb7d42ed7	-2.529418e-05
140	0xbb5bb0b9	-0.0033522083
141	0x388a2692	6.587537e-05
142	0xbc073d85	-0.0082544135
143	0x36c99b33	6.0083344e-06
144	0x366f9a60	3.5703633e-06
145	0xbabed89a	-0.0014560402
146	0x3a230d99	0.0006219983
147	0xb6e14ec9	-6.7146943e-06
148	0xbbbd1351	-0.005770125
149	0x39293bed	0.0001613942
150	0xb80c6eb4	-3.34817e-05
151	0xba520032	-0.00080108934
152	0x38e9f0bf	0.00011155148
153	0x392a118b	0.00016218999
154	0xbb0061f9	-0.0019589646
155	0xbb1c0ae8	-0.0023810212
156	0xbb1e7312	-0.0024177474
157	0xb9fb3804	-0.00047916186
158	0xbc52aadd	-0.01285812
159	0xb92b0f85	-0.00016313612
160	0xb7b497be	-2.1528333e-05
161	0x39fc1fd4	0.000480889
162	0x38d27010	0.000100344536
163	0x37df0d6e	2.6589925e-05
164	0x37f468a6	2.9135797e-05
165	0xb4076c70	-1.2612304e-07
166	0x389bd08b	7.42982e-05
167	0xb7e13547	-2.68469e-05
168	0xb758e7cf	-1.2928575e-05
169	0xbb4fd24d	-0.0031711042
170	0xbb028fa3	-0.001992204
171	0xb475f79b	-2.2907481e-07
172	0x39a332a4	0.00031127513
173	0xb4aff6b6	-3.2775796e-07
174	0x3a3dd64c	0.00072417106
175	0xb37abea3	-5.8381044e-08
176	0x3345fd54	4.6098037e-08
177	0x391ee078	0.00015151675
178	0xb89b0973	-7.392736e-05
179	0xb5f15a66	-1.7982209e-06
180	0x3a14ab8c	0.00056713144
181	0xb6f8b30c	-7.4118198e-06
182	0x35bf32c4	1.4245384e-06
183	0x3b70c218	0.0036736783
184	0x3572f721	9.0511645e-07
185	0xb76151cc	-1.343009e-05
186	0x3abf15d1	0.0014578645
187	0x399eb9c4	0.00030274515
188	0x3a36c4da	0.0006972082
189	0x3846c962	4.739443e-05
190	0x3a02b5b9	0.0004986185
191	0xb88c32fd	-6.6852175e-05
192	0xbc557065	-0.013027285
193	0xbd486e2b	-0.04893319
194	0xbe2308e7	-0.15921365
195	0x3d92cef1	0.07168377
196	0xbc7452b1	-0.014912293
197	0x393347fa	0.00017097584
198	0xbe5cc605	-0.21559913
199	0xbc59d51d	-0.013295439
200	0xbcc8d3ee	-0.024515118
201	0xbdad9b76	-0.084769174
202	0x3d979867	0.07402115
203	0x399d0558	0.00029949355
204	0xbd81b72d	-0.06333766
205	0x394e557f	0.0001967754
206	0xbc3f78bd	-0.011686501
207	0x3842b214	4.6419053e-05
208	0x372cbba8	1.0295691e-05
209	0x3d3c2940	0.045937777
210	0x3e51e664	0.20498043
211	0x3a8235c7	0.000993424
212	0x3e557450	0.20845151
213	0xbe0971f5	-0.13422377
214	0x3979c079	0.00023818192
215	0xbe405016	-0.1878055
216	0x3b49882e	0.0030751335
217	0xbd48fd28	-0.049069554
218	0x3c7ab2d8	0.015301429
219	0x3d86ee2b	0.06588396
220	0xbc12de59	-0.008964145
221	0xbd8b3144	-0.06796506
222	0xbbe50f47	-0.0069903466
223	0x3d906f8d	0.070525266
224	0xbc645863	-0.013937089
225	0x3b428ecf	0.0029687171
226	0xbac8bb36	-0.0015314582
227	0x3ca221bd	0.019791478
228	0x3c846665	0.016162107
229	0x37c2b99f	2.3213039e-05
230	0xbc6768a6	-0.014124071
231	0xbc75039b	-0.014954473
232	0x3b1895f5	0.002328274
233	0xbb225a63	-0.0024773113
234	0x3baf43ae	0.005348644
235	0xb81695cc	-3.5902296e-05
236	0x3b8b0a9a	0.004243207
237	0x37679945	1.3804359e-05
238	0xbbe00450	-0.0068364516
239	0x38a52089	7.873873e-05
240	0xb8868e44	-6.416117e-05
241	0xbb20bed8	-0.0024527814
242	0x3af4ea27	0.0018685505
243	0x388bc07f	6.663892e-05
244	0x3bc545c1	0.006020278
245	0xbc8befa0	-0.017082036
246	0x38b12e8a	8.448686e-05
247	0xbd3e889e	-0.046517007
248	0x3c652bec	0.013987523
249	0x3bcf7c2f	0.0063319425
250	0xbca9f218	-0.020745322
251	0xbc6daac1	-0.014506043
252	0xbd02b374	-0.03190942
253	0xbbe117f1	-0.006869309
254	0x3bea0415	0.0071416
255	0x3cb1a8b6	0.021686893

kernel.layers.2.bias f4 [64]
0	0xbbb4b44c	-0.005514657
1	0xb938fdc2	-0.0001764214
2	0xbcaaf099	-0.020866679
3	0xbcdd39b3	-0.027005052
4	0xbb795271	-0.0038043524
5	0xbc5a650d	-0.013329756
6	0xbd8886d4	-0.066663414
7	0x3bf35cad	0.0074268193
8	0xb7ee65ff	-2.8419307e-05
9	0x3d093d3f	0.033505674
10	0xbcff48db	-0.03116267
11	0xba40dac1	-0.00073568156
12	0xb8df16a2	-0.00010637684
13	0xbbb55885	-0.005534234
14	0xbe5a7c86	-0.21336564
15	0x3f14316c	0.5788791
16	0xbafa557c	-0.0019098963
17	0xb61a1495	-2.2959769e-06
18	0xbd08896c	-0.03333418
19	0xbe82e816	-0.25567693
20	0xb8ae8205	-8.3211846e-05
21	0xba62b36c	-0.0008647952
22	0xbd4894fd	-0.04897021
23	0xbaa40d41	-0.0012516157
24	0xbc145053	-0.009052354
25	0x3eb9345d	0.36172763
26	0xbe32b2ed	-0.17451067
27	0xbad50852	-0.001625309
28	0xbd369376	-0.044574223
29	0xbc4b7d09	-0.012419947
30	0x3efb9067	0.49133608
31	0xbcd4ab78	-0.025960669
32	0xbcaa926a	-0.020821769
33	0xbb960bdd	-0.004579051
34	0xbcd38f2a	-0.025825102
35	0x3e3d7ce4	0.18504673
36	0xbd46f0f3	-0.04856963
37	0xbd1f23b8	-0.038852423
38	0xbc30f993	-0.010801691
39	0xbea745fc	-0.3267058
40	0xbd865f55	-0.06561152
41	0xbc498bfb	-0.01230144
42	0xbb672309	-0.0035268685
43	0xbb6e8667	-0.0036396028
44	0xbea92e9a	-0.33043367
45	0xbe4b4359	-0.1984991
46	0xbdea129f	-0.11429333
47	0xb292213e	-1.7011754e-08
48	0xbd18deb4	-0.03732176
49	0xb9723a1f	-0.0002310057
50	0xb8ec1cb3	-0.000112587026
51	0xbc009055	-0.007846911
52	0xbd1b37ca	-0.037895
53	0xb7300e6b	-1.0493774e-05
54	0xbc9eb77b	-0.0193746
55	0xbc9c1bb6	-0.019056182
56	0xbaf95589	-0.0019022684
57	0xb9ad84cc	-0.00033096073
58	0xbba675e3	-0.005079971
59	0xbc07fb98	-0.008299731
60	0xbcaa92a4	-0.020821877
61	0xbcccc75d	-0.024997408
62	0xbb349ff9	-0.0027561171
63	0xbea2ef0a	-0.31822997

kernel.layers.4.weight f4 [1, 64]
0	0xbcc13fe0	-0.023590028
1	0x37cc7dcd	2.4377276e-05
2	0x3c4c6bef	0.012476905
3	0x3c781e57	0.015143952
4	0xbc41f7c4	-0.011838857
5	0x3a719970	0.00092162844
6	0xbe2bfcc4	-0.16795641
7	0x3af0ba35	0.0018366041
8	0x356fef8f	8.938304e-07
9	0x3e8f661b	0.28007588
10	0x3e4438fd	0.19162364
11	0xb930022b	-0.00016785476
12	0xb9665b09	-0.00021968423
13	0xba8c6960	-0.0010712557
14	0xbf58f99b	-0.8475587
15	0x3f5e6241	0.86868674
16	0x39ca6bfa	0.0003860889
17	0xb4b5a540	-3.3834112e-07
18	0x3c81ee19	0.015860604
19	0xbf0f5558	-0.559896
20	0xb8000069	-3.051796e-05
21	0xb89398a7	-7.03794e-05
22	0xbcd87f1e	-0.026427802
23	0xb998b3e0	-0.00029125717
24	0x39ad4b05	0.00033053025
25	0x3f83e2d4	1.0303597
26	0xbf9730b8	-1.1811743
27	0xba21d687	-0.00061736297
28	0x3c5bdd30	0.013419434
29	0x3a957b01	0.0011404456
30	0x3f1def90	0.6169367
31	0x3a933181	0.0011229963
32	0xbc2f718d	-0.010708225
33	0xba82aed4	-0.0009970316
34	0x3bbed5e6	0.0058238385
35	0x3f90a5ea	1.1300633
36	0xbf937c31	-1.1522275
37	0x3c914ac6	0.01773585
38	0x3b5ddd24	0.0033853734
39	0x3ea5c3c9	0.32375935
40	0x3c709d5e	0.014685957
41	0x3e339705	0.17538078
42	0xbbc7c9a8	-0.0060970373
43	0x3aaf52c1	0.0013376103
44	0xbfa5d152	-1.2954504
45	0xbf4cd7e4	-0.8001692
46	0x3e469d68	0.19395983
47	0x3020a72b	5.844522e-10
48	0x3b9edb89	0.004847948
49	0x36f445f7	7.2799116e-06
50	0xb83fe6d0	-4.575291e-05
51	0xb9c60e50	-0.00037776167
52	0xbb0df69c	-0.0021661883
53	0x350e8037	5.30857e-07
54	0xbcfa4375	-0.030549744
55	0xbb5c0d16	-0.0033577136
56	0xb62daea2	-2.5880659e-06
57	0xb80b7d68	-3.3256976e-05
58	0xbb4dd983	-0.0031410165
59	0xbbebd994	-0.007197568
60	0xbb9ae47f	-0.004726946
61	0x3c2b1cf3	0.010443914
62	0x3a90ac90	0.0011037756
63	0xbf0c4f2b	-0.548083

kernelf.layers.0.weight f4 [32, 4]
0	0xbf5901b3	-0.8476822
1	0x3ebef410	0.3729558
2	0xbee76abf	-0.45198628
3	0x3f520081	0.8203202
4	0x3d4d3fab	0.050109547
5	0x3ca88134	0.020569421
6	0xbf1051ff	-0.56375116
7	0xbd9915bb	-0.07474848
8	0xbcb23b7f	-0.021756886
9	0xbdeb91d8	-0.11502427
10	0x3e82bd7d	0.25535193
11	0xbece3448	-0.40274262
12	0x3e5efb31	0.2177551
13	0x3f1ff1f7	0.62478584
14	0xbf3d2e94	-0.738992
15	0x3e46d50f	0.19417213
16	0x3d8c4931	0.06849898
17	0x3db923eb	0.09040054
18	0x3e25d2de	0.1619372
19	0xbd8e0667	-0.06934815
20	0xbb05deb6	-0.0020426936
21	0x3a316f71	0.000676862
22	0x3b841758	0.004031103
23	0xbb96882e	-0.0045938706
24	0xbeb3bc25	-0.3510448
25	0xbef99869	-0.48749092
26	0xbe8f0904	-0.27936566
27	0x3e3c0ee3	0.18365054
28	0x3e214719	0.15749778
29	0xbf14045b	-0.57819146
30	0xbf8ccfe4	-1.1000943
31	0xbd59cbfd	-0.053173054
32	0xbf6db9a7	-0.9286141
33	0x3dcf2414	0.10114303
34	0xbe1f76d1	-0.15572669
35	0xbca0db92	-0.01963595
36	0xbc86983d	-0.016430015
37	0xbd1d718f	-0.038438376
38	0x3ca1640b	0.019701025
39	0xbf93602e	-1.1513727
40	0xbeaba24e	-0.33522266
41	0x3eafb80b	0.343201
42	0xbf7d2440	-0.9888344
43	0x3decd89c	0.115647525
44	0xbe970d1f	-0.29502198
45	0xbd7c5f3f	-0.06161427
46	0xbe8b159b	-0.2716492
47	0x3f17ce04	0.5929873
48	0x3a8db796	0.0010812159
49	0xbf744d0d	-0.9543007
50	0x3f745f89	0.95458275
51	0xba36830b	-0.0006962276
52	0xbd1e3255	-0.03862222
53	0xbf3b8485	-0.73249084
54	0x3ed79868	0.42108464
55	0x3d413882	0.04717303
56	0x3f872172	1.0557082
57	0xbf18935c	-0.5959985
58	0x3f1a01fb	0.6015927
59	0xbf8f700e	-1.1206071
60	0x3b9c61b6	0.0047723902
61	0x3abb2ce6	0.0014280349
62	0x3c19486a	0.009355644
63	0xbaf6be65	-0.0018825053
64	0xbf580f02	-0.843979
65	0x3d4ee0c0	0.050507307
66	0x3e233695	0.1593879
67	0x3f4bdff6	0.7963861
68	0xbed213a4	-0.4103061
69	0x3ef23f45	0.47313896
70	0x3e02ac9e	0.1276116
71	0x3eaa3f3b	0.33251366
72	0xbaff3518	-0.0019470779
73	0x3fb9307f	1.4467925
74	0xbfba9096	-1.4575374
75	0x3aa88570	0.001285715
76	0xbe17384a	-0.14767566
77	0xbe446ad7	-0.19181381
78	0x3e6e0e2c	0.23247594
79	0x3edce67e	0.43144602
80	0xbfa78592	-1.3087637
81	0xbead2577	-0.33817646
82	0x3eb311a6	0.34974402
83	0x3fa82393	1.3135856
84	0xbb93e4a6	-0.004513341
85	0xbdbfddd7	-0.093684845
86	0x3f650f5a	0.8947655
87	0xbd702032	-0.058624454
88	0xbf90ae69	-1.1303226
89	0x3f447407	0.76739544
90	0xbf486708	-0.78282213
91	0x3f932427	1.1495408
92	0x3c660a61	0.01404056
93	0xbacab3d6	-0.0015464972
94	0x3ad0d10e	0.0015931444
95	0xbfa154a3	-1.2603954
96	0xbeab9211	-0.33509877
97	0x3a70e97f	0.0009190067
98	0x3b4b9c5c	0.003106854
99	0x3fb1db64	1.3895078
100	0xbef0b1a6	-0.47010535
101	0xbe355261	-0.17707206
102	0x3e239970	0.159765
103	0x3edb7325	0.42861286
104	0x3e326314	0.17420608
105	0xbd3a2d29	-0.045453224
106	0x3f1e9aac	0.6195476
107	0xbdfeac18	-0.12435168
108	0x3c4025fa	0.011727804
109	0xba9510c1	-0.0011372791
110	0x3b7e9e65	0.0038851735
111	0x3b2ef576	0.00266966
112	0xbe23f72a	-0.16012254
113	0xbfcc8a7b	-1.5979761
114	0x3fcc943f	1.5982741
115	0x3e24a7a0	0.16079569
116	0x3fb0b745	1.380593
117	0x3da4d3fc	0.08048245
118	0xbdaba374	-0.083807856
119	0xbfb15f48	-1.3857203
120	0xbe908e60	-0.28233624
121	0x3f059406	0.5217899
122	0xbf0fec9d	-0.5622042
123	0xbea18c5e	-0.31552404
124	0x3f8c0657	1.0939435
125	0x3f5aa3f9	0.8540645
126	0xbf5e1a6d	-0.8675907
127	0xbf8e9f18	-1.1142302

kernelf.layers.0.bias f4 [32]
0	0xbe2dbf45	-0.16967495
1	0xbe6e0be5	-0.23246725
2	0xbe00de3d	-0.12584777
3	0xbef2e007	-0.47436544
4	0xbe61fbea	-0.22068754
5	0xbd24de6b	-0.040251177
6	0xbf0209d0	-0.5079622
7	0xbf97d26a	-1.1861088
8	0xbf01b8d0	-0.50672626
9	0xbf47ef12	-0.7809917
10	0xbf153109	-0.58277947
11	0xbeb348d2	-0.35016495
12	0xba8d01e4	-0.001075801
13	0xbe33416b	-0.17505424
14	0xbe06a626	-0.13149318
15	0xbc80e933	-0.015736198
16	0xbea88684	-0.32915127
17	0xbee5bddf	-0.44871423
18	0xbe201200	-0.15631866
19	0xbe01d4e6	-0.1267887
20	0xbdf714ee	-0.12064539
21	0xbf07061a	-0.52743685
22	0xbc51351c	-0.01276901
23	0xbf909d85	-1.1298071
24	0xbf7d8d65	-0.99043876
25	0x3de6d381	0.1127081
26	0xbe4a8d1b	-0.1978039
27	0xbd675e65	-0.056486506
28	0xbe241a62	-0.16025689
29	0xbd530df3	-0.051526975
30	0xbf06aa3d	-0.52603513
31	0xbd89dd64	-0.0673168

kernelf.layers.2.weight f4 [64, 32]
0	0xbc16d1db	-0.009205307
1	0x3e2719ff	0.1631851
2	0x3c5c36fd	0.013440845
3	0xbd443abb	-0.047907572
4	0xbd6ecbff	-0.058300015
5	0x3b1533d2	0.0022766483
6	0xbbec7236	-0.0072157634
7	0x3d81e17d	0.063418366
8	0xbd02e0fc	-0.031952843
9	0x3e7f8ade	0.24955317
10	0xbcc772e0	-0.024346769
11	0x3c3d1331	0.01154022
12	0x3c57720a	0.013149748
13	0xbd390d62	-0.04517878
14	0x3cceab5c	0.025228195
15	0xbc8f73a9	-0.017511206
16	0x3be539cc	0.0069954153
17	0x3b982cdc	0.0046440195
18	0x3dab65b1	0.083690055
19	0xbc457618	-0.0120520815
20	0x3cbb902d	0.022895897
21	0x3df50877	0.11964505
22	0xbcdb2172	-0.026749346
23	0x3ebb1c10	0.36544847
24	0x3c9670fb	0.01836442
25	0x3c8abd1c	0.016935878
26	0x3db38ec5	0.087674655
27	0x3b2cd8e1	0.0026374387
28	0x3cda11d5	0.026619831
29	0x3d01f4fd	0.03172778
30	0xbd88d98b	-0.06682118
31	0x3b945446	0.0045266477
32	0xbe1e5d5d	-0.15465303
33	0xbf162702	-0.5865327
34	0xbed2d922	-0.41181284
35	0x3c639dd0	0.013892606
36	0xbd0bd588	-0.034139186
37	0xb7efe84f	-2.8599197e-05
38	0x3e37758d	0.17915936
39	0x3e352245	0.17688854
40	0xbee579e5	-0.4481956
41	0xbf05eea1	-0.52317244
42	0x3d2912b5	0.041277606
43	0xbe33d7c8	-0.17562783
44	0xbf8b79a8	-1.0896502
45	0x3d312e5e	0.04325711
46	0xbd94133a	-0.0723023
47	0x3ac6a6b9	0.0015155888
48	0x3dff9cda	0.12481089
49	0x3e3e5d2b	0.18590228
50	0xbe57d365	-0.21076734
51	0x3dce63f1	0.10077656
52	0xbf01a7f9	-0.5064693
53	0x3e9e3ebb	0.30907235
54	0xbf08122f	-0.53152746
55	0x3dc24226	0.09485273
56	0xbebfa157	-0.3742778
57	0xbc19424d	-0.009354186
58	0xbe11a5b5	-0.14223368
59	0x3b1523cd	0.0022756935
60	0xbf474dbf	-0.77853006
61	0xbee99053	-0.45617923
62	0xbd5aeb0d	-0.05344682
63	0xbea5c11a	-0.32373887
64	0xbc96be8f	-0.018401412
65	0xba2945e8	-0.0006457255
66	0x3af379d3	0.0018575735
67	0x39cddb0d	0.00039263853
68	0x383c9fe9	4.497162e-05
69	0x3851d224	5.002519e-05
70	0x391a3ec7	0.00014709971
71	0xb8ebdf07	-0.00011247215
72	0xb8200ee2	-3.8160833e-05
73	0x39a4cac3	0.00031431587
74	0x38f5afa6	0.000117152274
75	0x39c46471	0.00037458868
76	0xb9b81be0	-0.00035115983
77	0xba92a575	-0.0011188226
78	0x3b63ed4d	0.0034778893
79	0x36789e0d	3.7046877e-06
80	0xbbf88b26	-0.007584947
81	0x390fa161	0.00013697661
82	0xbccfd238	-0.025368795
83	0x3b585c83	0.0033014126
84	0x3b12f8ef	0.0022426208
85	0xbb1ebd73	-0.0024221807
86	0xbcfab398	-0.030603215
87	0xb9203030	-0.0001527674
88	0xb9b1b6d2	-0.00033896283
89	0x3b264de5	0.0025376019
90	0x396f8771	0.00022843272
91	0xb7d6cbce	-2.5605692e-05
92	0xbba5ce0c	-0.005059963
93	0xbbf19895	-0.0073729255
94	0x3a065e7b	0.0005125773
95	0xbcd1cb49	-0.02560963
96	0xbb10119e	-0.0021983157
97	0x3a5add63	0.0008349029
98	0x3acca744	0.0015613814
99	0x39e4f7f4	0.00043672288
100	0x392daa30	0.00016561965
101	0xb8141355	-3.5303954e-05
102	0xb8a3fb59	-7.819263e-05
103	0xb97ce8f2	-0.00024119372
104	0x3a12c124	0.0005598238
105	0x3a33509a	0.00068403187
106	0x3ac53fdb	0.0015048938
107	0x3a2be4d8	0.00065572327
108	0xbb2ac1f2	-0.0026055542
109	0x3afbe9d0	0.0019219462
110	0xba990a66	-0.0011676073
111	0xb9fb6109	-0.00047946748
112	0x3b36e4c4	0.002790735
113	0x3a2f4b92	0.0006686981
114	0xbc7538b7	-0.014967135
115	0x3b22c271	0.0024835134
116	0x3a8b4da0	0.0010627992
117	0x3a83c875	0.0010054248
118	0xbc3a4597	-0.011369131
119	0xb8e0e810	-0.00010724377
120	0x3a06f8b3	0.00051487534
121	0x3b31236a	0.0027029165
122	0x3af20c24	0.0018466753
123	0xb80744c6	-3.225056e-05
124	0xbb9b8900	-0.0047465563
125	0xbbb1401d	-0.005409254
126	0x3a926980	0.0011170357
127	0xbc1c68d6	-0.009546479
128	0xbaf7857c	-0.0018884386
129	0x3c7fa38f	0.01560296
130	0xbc9ba287	-0.018998398
131	0x3a9c54be	0.0011927111
132	0xb85aad98	-5.2136922e-05
133	0xb76b9f74	-1.4044217e-05
134	0x3b2ced9f	0.002638675
135	0x3c38aba7	0.011271394
136	0xbb83f2bf	-0.0040267403
137	0xbb8f3bc5	-0.0043711388
138	0x3b3aa97b	0.0028482366
139	0x3b2e1bdb	0.0026566896
140	0xbcfe2916	-0.03102545
141	0xbca51fdc	-0.020156793
142	0x3be64e3c	0.0070283692
143	0xb6e1ee34	-6.733253e-06
144	0xbb67b0ef	-0.0035353263
145	0x3a64f4f8	0.0008734013
146	0xbd1f3adf	-0.038874503
147	0x3a258672	0.00063142844
148	0xbd2937b2	-0.04131288
149	0xbba240d7	-0.004951577
150	0xbc6db5ef	-0.014508708
151	0xb831caa7	-4.2388823e-05
152	0x3b2928b4	0.0025811614
153	0xbce7a3bb	-0.028276315
154	0x3c8c1445	0.017099509
155	0xb71bc89a	-9.285426e-06
156	0xbd1c68c2	-0.038185842
157	0xbaf477a8	-0.0018651383
158	0x39a0d8dc	0.0003067915
159	0xbcbe365b	-0.023219278
160	0x38859454	6.3695625e-05
161	0xbc22c92e	-0.00993566
162	0x3c463d01	0.012099505
163	0xbada78be	-0.0016668064
164	0x39a605e0	0.00031666365
165	0xb7eb4c1f	-2.804963e-05
166	0xbabd7f45	-0.0014457485
167	0xb982a2fb	-0.00024916962
168	0xb99453be	-0.00028291153
169	0x396bf3b2	0.0002250213
170	0x3b210d8e	0.002457473
171	0xba6f946f	-0.0009139245
172	0x38685686	5.539369e-05
173	0x3bd4fd76	0.0064999415
174	0xbc72d5a4	-0.014821444
175	0x39deb1e8	0.0004247569
176	0x3ab1f61e	0.0013577377
177	0x3ae7d426	0.0017687127
178	0xbcc75cf2	-0.024336312
179	0xba4aea11	-0.0007740567
180	0xbb2df005	-0.0026540768
181	0xbb25453e	-0.0025218274
182	0x3a97d078	0.0011582514
183	0x38c1c45a	9.2395305e-05
184	0x3a4fc901	0.0007926375
185	0xbb73683f	-0.0037140993
186	0xbbf6726e	-0.0075209653
187	0xb811db23	-3.477478e-05
188	0x3b6e9865	0.0036406752
189	0xbcb7ffec	-0.0224609
190	0xbab9fc8c	-0.0014189645
191	0xbcc5622f	-0.02409467
192	0xbeab4c3f	-0.3345661
193	0x3d9532f5	0.0728511
194	0x3e9572e0	0.29189205
195	0xbe30201c	-0.17199749
196	0xbc46d3df	-0.012135475
197	0xbc64f6eb	-0.013974885
198	0xbc969e38	-0.018385991
199	0xbe447557	-0.19185387
200	0x3e7d4ffa	0.2473754
201	0x3e466f44	0.19378382
202	0xbe32a5e0	-0.17446089
203	0x3ebd70b8	0.3700006
204	0xbe7e8aab	-0.24857585
205	0x3dec46b2	0.115369216
206	0xbeda8adb	-0.42684063
207	0xbb4f7ae7	-0.003165895
208	0xbdac3394	-0.08408275
209	0x3e9981ee	0.2998194
210	0xbe91856f	-0.28422114
211	0x3de5c2ca	0.11218794
212	0xbe730bfa	-0.23735037
213	0x3d251d9c	0.04031144
214	0xbe6778de	-0.22604701
215	0xbed8e251	-0.42360166
216	0xbdb9a6de	-0.090650305
217	0xb930df6a	-0.00016867896
218	0xbf230ed9	-0.6369453
219	0xbc4c1e1c	-0.0124583505
220	0xbee3dd2b	-0.44504675
221	0x3c3e6dce	0.011622859
222	0xbe890b30	-0.26766348
223	0xbe8304ee	-0.255897
224	0xbf3afcbc	-0.7304189
225	0xbd0fc1b2	-0.03509683
226	0xbeae65e9	-0.34062126
227	0xbedb3bca	-0.42819053
228	0xbe4445d8	-0.19167268
229	0xbc6c438e	-0.014420403
230	0xbeedf09e	-0.4647264
231	0x3d922acf	0.07137071
232	0xbd674fcc	-0.056472585
233	0x3e68584a	0.2268993
234	0x3ee06388	0.43825936
235	0xbdb96534	-0.09052506
236	0xbe734989	-0.2375852
237	0xbc91b322	-0.017785612
238	0xbe439f1c	-0.19103664
239	0xbaebfb21	-0.0018003919
240	0xbebe6b4d	-0.3719124
241	0xbe8e3b9a	-0.27779847
242	0xbde69a59	-0.11259908
243	0xbe4a24b3	-0.19740562
244	0xbe22d141	-0.15900137
245	0x3ec3ad8a	0.38218337
246	0xbeda258d	-0.42606774
247	0xbee20de4	-0.44151223
248	0xbd6cde3a	-0.05782912
249	0x3ec9fc55	0.39450327
250	0xbdc870fd	-0.09787176
251	0xbc4d22d8	-0.012520514
252	0xbf243a24	-0.64151216
253	0xbd280f3b	-0.04103015
254	0xbe83bc25	-0.2572948
255	0xbf663d9a	-0.89937747

kernelf.layers.2.bias f4 [64]
0	0xbe85bea4	-0.2612201
1	0x3e9e376d	0.30901662
2	0xbb0313b1	-0.002000075
3	0xbc6551a5	-0.013996516
4	0xbb7b1e82	-0.0038317745
5	0xbd0fca40	-0.03510499
6	0x3ef53bef	0.47897288
7	0x3f422699	0.75840145
8	0x38372a58	4.3670036e-05
9	0xbd1801e0	-0.037111163
10	0xbce9e3ba	-0.028550971
11	0xbd046cdb	-0.032330375
12	0xbbce8f27	-0.006303686
13	0x3f65a4fb	0.89704865
14	0xbb847b80	-0.0040430427
15	0xbcd577aa	-0.026058037
16	0xbd4214a3	-0.047382962
17	0xbcc47816	-0.023983043
18	0xbc8688cd	-0.016422654
19	0xba0ee9cb	-0.0005451708
20	0xbcb0b479	-0.021570431
21	0xbc140ddc	-0.009036507
22	0x3f63258e	0.8872918
23	0x3f2b4fd7	0.669187
24	0xb9cc7b72	-0.00039001886
25	0xbb1ea8b2	-0.0024209437
26	0xbd817f3d	-0.06323097
27	0xbc22ac6e	-0.009928806
28	0xba3b17fc	-0.0007137058
29	0x3da87091	0.08224595
30	0x3f51c41a	0.8193985
31	0xbc491067	-0.012271977
32	0xbd0cb453	-0.034351658
33	0xbeed9cae	-0.464086
34	0xbd2f9ada	-0.042872287
35	0xbcf6f1b2	-0.030144546
36	0xba555eea	-0.00081394485
37	0xbb8f0324	-0.004364388
38	0xbc0d62bd	-0.008629498
39	0xbeb01445	-0.34390464
40	0xbb0efedf	-0.0021819395
41	0xbb1d39a4	-0.0023990655
42	0xbd111b14	-0.035426214
43	0xbe8d6e13	-0.27623042
44	0xbcce8912	-0.025211845
45	0xbb789e3a	-0.0037936107
46	0xbda2bde4	-0.07946375
47	0xbcaa1c31	-0.020765396
48	0x3eca5c0c	0.3952335
49	0xbb1bf477	-0.0023796835
50	0xb7622a5b	-1.3480511e-05
51	0xb94f494b	-0.00019768362
52	0xbbaf605c	-0.005352063
53	0xbd0183b1	-0.03161973
54	0xb8f211a8	-0.00011542748
55	0xbd0b5383	-0.03401519
56	0xbc27fc02	-0.010252954
57	0xbd12cad9	-0.03583798
58	0xbd3eb6f3	-0.046561193
59	0xbe85aa21	-0.2610636
60	0xbbc475cf	-0.005995489
61	0x3b98602a	0.0046501355
62	0xbcbf72c1	-0.023370149
63	0xbcbdc233	-0.02316389

kernelf.layers.4.weight f4 [1, 64]
0	0x3d615342	0.05501104
1	0x3f42146b	0.75812405
2	0xbb061ca3	-0.0020463846
3	0xba930af8	-0.0011218479
4	0x38e0373b	0.0001069144
5	0x39cd6797	0.00039177827
6	0xbe98ba84	-0.298298
7	0xbf09624e	-0.53665626
8	0xbad299e8	-0.0016067596
9	0x3be519ee	0.0069916165
10	0xbc2d41b0	-0.010574743
11	0xbc6be1d9	-0.014397108
12	0x392fca07	0.00016764562
13	0x3f93ac89	1.1537029
14	0x3803835a	3.1355165e-05
15	0xbb2ad433	-0.0026066422
16	0xbcbf3b47	-0.023343695
17	0xbb5a8128	-0.0033341143
18	0x390f98fa	0.00013694531
19	0x3725bc87	9.878661e-06
20	0x3b72b6fe	0.0037035341
21	0xb8db3195	-0.00010451969
22	0x3ff58ab0	1.9182949
23	0x3f4cc102	0.79982007
24	0xb9a39ea5	-0.00031207982
25	0xbb69d1f7	-0.0035678127
26	0xbfc12fc9	-1.5092708
27	0xbc03a5cb	-0.008035134
28	0xb89bb717	-7.425079e-05
29	0xbf941aa7	-1.1570634
30	0x3f9560d5	1.1670176
31	0xba15c93f	-0.0005713887
32	0xbf1ed63d	-0.6204565
33	0xbfcfe0b4	-1.6240449
34	0xbf82b10b	-1.0210279
35	0x3d07efdc	0.033187732
36	0xbb3387a6	-0.0027394085
37	0x386832fb	5.536059e-05
38	0x38f46437	0.00011653493
39	0x3e3e3eef	0.18578695
40	0xb797c186	-1.809072e-05
41	0xb839cc27	-4.429757e-05
42	0x3c9680e0	0.018372
43	0xbf85201c	-1.0400424
44	0xbd0cedbd	-0.034406412
45	0xb75ffd0b	-1.3350752e-05
46	0xbfd262bf	-1.6436385
47	0xbcb07faf	-0.02154526
48	0x3fb88ae8	1.4417391
49	0x39a76287	0.0003192613
50	0x39b211e9	0.0003396415
51	0x3748f97f	1.1979019e-05
52	0x3b0ed63c	0.0021795174
53	0xbbbb0ca8	-0.005708296
54	0xba7baec1	-0.00096009305
55	0xbbcbfe3b	-0.006225375
56	0x370c9406	8.379115e-06
57	0xbca3c60f	-0.019991903
58	0x3c75809a	0.014984274
59	0xbf825107	-1.0180978
60	0xb8cd35cc	-9.785182e-05
61	0x3ae572a0	0.0017505474
62	0xb85ba860	-5.237048e-05
63	0xbb0f26bc	-0.0021843156

fcq_0_0.weight f4 [20, 20]
0	0xbf0abdbb	-0.54195756
1	0xbe02d532	-0.1277664
2	0xbe7ad12a	-0.24493852
3	0x3f17ec29	0.59344727
4	0xbeb9467b	-0.36186585
5	0xbcdd9c6d	-0.027052129
6	0x3f393a92	0.72354996
7	0xbec13f68	-0.37743688
8	0x3e073085	0.13202102
9	0x3f044404	0.51666284
10	0x3e896723	0.268365
11	0x3f148b71	0.5802527
12	0xbef3622a	-0.4753583
13	0xbe1419bf	-0.14462946
14	0x3f03b599	0.5144897
15	0xbe819a30	-0.25312948
16	0x3e634b29	0.2219664
17	0xbcbac4cb	-0.022798916
18	0xbc80fe80	-0.015746355
19	0x3f8bf0f7	1.0932912
20	0xbe240175	-0.16016181
21	0x3d1d1214	0.03834732
22	0xbf2a8fd0	-0.6662569
23	0xbe2619d1	-0.16220786
24	0xbf837034	-1.0268617
25	0x3f305670	0.68881893
26	0xbeeb8934	-0.46003115
27	0x3ee36af0	0.44417524
28	0x3eccf779	0.40032557
29	0xbe7d227e	-0.24720189
30	0xbef0457c	-0.46928012
31	0x3e5bf76f	0.21481107
32	0x3e3182aa	0.17335
33	0x3cd5fb26	0.026120733
34	0x3f4d9d4c	0.8031814
35	0x3f934a41	1.1507035
36	0xbee44409	-0.44583157
37	0x3e9e7c5c	0.30954254
38	0x3f06832c	0.525439
39	0xbcf3247a	-0.02968048
40	0xbde76453	-0.11298432
41	0xbe623c69	-0.22093357
42	0x3ddbee42	0.107388034
43	0x3d78fd4e	0.060788445
44	0x3e1b2db5	0.15154155
45	0xbea6218c	-0.3244747
46	0xbe1ccc43	-0.15312295
47	0x3ce1c77d	0.027560944
48	0x3f2dc604	0.6788027
49	0xbe995ad2	-0.29952103
50	0x3d272df7	0.04081532
51	0x3e4cf310	0.20014596
52	0xbf7426a2	-0.9537145
53	0x3e5b1dfb	0.21398155
54	0xbe6104cb	-0.21974485
55	0x3e6dfab4	0.23240167
56	0x3d32d216	0.043657385
57	0x3eb7dc81	0.3591042
58	0xbf7a9c8a	-0.9789511
59	0xbf412a27	-0.75454944
60	0xbd6f51eb	-0.058427732
61	0x3e5fab26	0.21842632
62	0x3e7976d5	0.24361737
63	0x3e749645	0.23885448
64	0x3f6ec698	0.9327178
65	0xbf3a66bf	-0.7281303
66	0x3ec0fc7c	0.3769263
67	0xbeecba10	-0.46235704
68	0x3e324213	0.17408018
69	0x3f817d1c	1.0116305
70	0x3e208dec	0.15679139
71	0xbee6a5e7	-0.45048448
72	0xbe6674fc	-0.22505563
73	0x3dc5d26d	0.09659276
74	0x3eef4c79	0.46738032
75	0xbe888598	-0.26664424
76	0xbee07695	-0.4384047
77	0x3eb79264	0.35853875
78	0x3e6e10b9	0.23248567
79	0xbf661c80	-0.8988724
80	0x3beebfcb	0.007286047
81	0x3c143269	0.009045222
82	0xba78704f	-0.00094771845
83	0x3b93d65e	0.0045116385
84	0x3bc60ba9	0.0060438705
85	0x3b1ef527	0.002425501
86	0x3b834564	0.0040060747
87	0x3c4ca03a	0.012489373
88	0xb8469a78	-4.735074e-05
89	0xbb65921c	-0.0035029715
90	0x3c15d57b	0.009145136
91	0x3b876cc7	0.0041328403
92	0x3b10e68e	0.0022110078
93	0x3bbca7ae	0.0057572937
94	0xbc4be015	-0.012443562
95	0xbb4d5a62	-0.003133439
96	0x3c92defb	0.017928591
97	0xbc3996da	-0.01132747
98	0xbb66e7b1	-0.0035233314
99	0xbc5ff39b	-0.01366892
100	0x3ea079dd	0.31342974
101	0x3ef6cf8b	0.48205218
102	0x3e45e5e1	0.19325973
103	0xbf13bb97	-0.57708114
104	0x3ecd5c8d	0.40109673
105	0xbe6a6cae	-0.2289302
106	0xbf52e88d	-0.82386094
107	0x3e7d10e4	0.24713475
108	0x3f03fc1b	0.5155656
109	0x3e98eeaa	0.29869586
110	0xbe4bdac7	-0.19907676
111	0xbf1529c7	-0.5826687
112	0x3f099a73	0.53751296
113	0x3b55a68a	0.0032600486
114	0xbbb1ef13	-0.005430111
115	0xbe4a9467	-0.19783174
116	0x3ed61f9a	0.41820985
117	0x3e9e5a54	0.3092829
118	0xbf273769	-0.65318924
119	0x3f35c43c	0.71002555
120	0x3ec44464	0.38333428
121	0x3ef24ed9	0.4732578
122	0xbef45fab	-0.4772924
123	0xbd7b8e5d	-0.061415065
124	0xbf44f5c8	-0.7693753
125	0x3dc9ec36	0.09859507
126	0x3d98b4b1	0.07456339
127	0x3e98acf6	0.2981946
128	0xbf144c33	-0.5792877
129	0x3ea9eb4c	0.3318733
130	0xbc88d564	-0.016703315
131	0xbf8607a9	-1.0471088
132	0xbe81ef3c	-0.25377834
133	0xbe30c866	-0.17263946
134	0xbe7aec75	-0.24504264
135	0x3ea38b85	0.31942382
136	0x3ed14735	0.4087464
137	0x3f2eab89	0.6823049
138	0x3dfa7b39	0.12230534
139	0xbdbff7f2	-0.09373464
140	0xbeb11f0c	-0.34594
141	0xbda2c671	-0.07948006
142	0x3f1bf22a	0.6091639
143	0xbe9a5116	-0.3013999
144	0x3f491834	0.78552556
145	0xbe9ad06f	-0.30237147
146	0xbe7f4aee	-0.24930927
147	0xba0c4f4f	-0.0005352394
148	0xbf258242	-0.6465188
149	0x3d1cd1dd	0.03828608
150	0x3e596ffb	0.21234123
151	0x3f0f5556	0.5598959
152	0x3f24ad98	0.64327383
153	0x3ebdb652	0.37053162
154	0x3e96c6ef	0.2944865
155	0xbefc8c16	-0.49325627
156	0xbe07bc13	-0.13255338
157	0x3e12e97a	0.14346877
158	0x3e92c931	0.28669122
159	0xbf0937eb	-0.5360095
160	0xbdcddc69	-0.100518055
161	0x3efb33d7	0.49062988
162	0xbd8bd94b	-0.06828555
163	0xbcc3ccde	-0.0239014
164	0xbecef50d	-0.40421334
165	0x3ef1715c	0.471568
166	0xbe91fdd0	-0.28513956
167	0x3dd3d6ad	0.103436805
168	0x3f8bc546	1.0919578
169	0x3e81fb18	0.25386882
170	0x3db780a5	0.08960084
171	0x3e67b3ac	0.22627133
172	0xbea720c6	-0.32642192
173	0x3d2bec73	0.041973542
174	0xbf24f25d	-0.64432317
175	0xbeaff0db	-0.34363446
176	0x3e053382	0.1300793
177	0xbe441881	-0.19149972
178	0x3f7ba5ac	0.9829967
179	0xbe0a2421	-0.13490345
180	0xbdf508c7	-0.11964565
181	0xbe05ca78	-0.13065517
182	0x3f769888	0.96326494
183	0xbdf448b5	-0.1192793
184	0x3fc1fe71	1.5155774
185	0xbf0be1cb	-0.5464141
186	0x3d25a341	0.040438894
187	0xbedb37fe	-0.42816156
188	0xbe1e3b5a	-0.15452328
189	0x3e9c4209	0.3051913
190	0x3ec4fe31	0.38475183
191	0xbea85850	-0.32879877
192	0xbf095fc3	-0.53661746
193	0x3cb80f91	0.02246836
194	0x3ec10b5a	0.37703973
195	0x3f2df556	0.6795248
196	0x3eded5d3	0.4352251
197	0x3e9631a7	0.29334757
198	0x3efecf3e	0.49767488
199	0x3e902e0b	0.28160128
200	0xbe9b22f0	-0.30300093
201	0xbf1774b0	-0.59162426
202	0x3f077c83	0.52924365
203	0xbecceffe	-0.4002685
204	0x3fb68102	1.425812
205	0xbe84c3bc	-0.25930583
206	0xbeebf9c2	-0.46088988
207	0xbee40516	-0.4453513
208	0xbe1c72f7	-0.1527823
209	0xbeab17e5	-0.33416668
210	0xbe247b05	-0.16062553
211	0xbc945d58	-0.018110916
212	0xbba8a383	-0.0051464452
213	0x3ee8d048	0.45471406
214	0xbf5e5c60	-0.86859703
215	0x3f1658c8	0.5872922
216	0xbdfa65de	-0.12226461
217	0x3cc738c6	0.024319064
218	0x3f043f4c	0.51659083
219	0x3e72e3f7	0.23719774
220	0x3e9fb4f7	0.31192753
221	0xbf8cab67	-1.0989808
222	0xbc421a8f	-0.011847152
223	0x3e2c162c	0.16805333
224	0xbe183e01	-0.14867403
225	0xbf1ef7fd	-0.6209715
226	0x3e8a32e9	0.26991966
227	0xbe7419e8	-0.23838007
228	0x3f0640b6	0.5244249
229	0xbf4ebc1e	-0.80755794
230	0x3e4eda6b	0.20200507
231	0xbf6ad01e	-0.9172381
232	0x3dc9ed68	0.09859735
233	0xbea7d471	-0.32779267
234	0x3e71d019	0.23614539
235	0xbf3915e9	-0.7229906
236	0xbe8f0853	-0.27936038
237	0x3f166a77	0.587562
238	0x3e9a3a33	0.30122527
239	0x3e9c5229	0.30531433
240	0xbf78eaaf	-0.972331
241	0xbf41faf0	-0.75773525
242	0xbeb22542	-0.3479405
243	0xbdad9631	-0.08475912
244	0xbf161d66	-0.5863861
245	0x3d46092a	0.048348583
246	0xbe9e7415	-0.3094794
247	0x3ea953f0	0.33071852
248	0x3e655065	0.2239395
249	0x3f20af70	0.62767696
250	0xbf30784a	-0.68933547
251	0xbf71bca1	-0.9442845
252	0x3ed5b00b	0.41735873
253	0x3e4ef592	0.20210865
254	0xbbef86f4	-0.007309789
255	0x3d755ada	0.059901096

fcq_0_0.bias f4 [20]
0	0x3d3abeca	0.045592107
1	0xbb5b44d8	-0.0033457782
2	0x3c8b93b8	0.017038211
3	0x3d924bcd	0.07143364
4	0xbb423257	-0.0029632056
5	0x3d1e6a1e	0.03867542
6	0xbb6e4b0d	-0.0036360652
7	0x3cbab7da	0.022792745
8	0xbc15c5f0	-0.00914143
9	0x3b1cfd55	0.0023954709
10	0x3d9554d6	0.07291572
11	0x3adfc78e	0.0017073022
12	0xbd16a581	-0.03677893
13	0x3cb45a8b	0.02201583
14	0xbd16b541	-0.03679395
15	0x3cf056a9	0.029338198
16	0x3c813d1e	0.015776213
17	0xbd7159da	-0.05892358
18	0x3b626b66	0.0034548878
19	0x3bf2fe73	0.0074155866

fck_0_0.weight f4 [20, 20]
0	0x3f08a37e	0.5337447
1	0x3e0b38b7	0.13595854
2	0x3c8305a9	0.01599391
3	0x3c5d3e9e	0.013503699
4	0x3ebccf52	0.36876923
5	0xbebde027	-0.37085077
6	0xbda69a12	-0.08134855
7	0xbe136ec9	-0.1439773
8	0xbe0f0af3	-0.1396902
9	0xbf016d95	-0.50557834
10	0xbf3d946f	-0.74054617
11	0xbef595fe	-0.47965997
12	0x3eff81eb	0.49903807
13	0x3ee4c084	0.44678128
14	0xbf07331d	-0.5281237
15	0x3e9a7976	0.30170792
16	0xbe88c6c3	-0.26714143
17	0x3d05f779	0.03270671
18	0xbb1b1dd7	-0.002366891
19	0xbf8c7de5	-1.097592
20	0x3e24fad9	0.16111316
21	0xbd451d37	-0.048123565
22	0x3f00cbd9	0.50311047
23	0xbdb2d38f	-0.08731758
24	0x3f84e880	1.0383453
25	0xbf5d86f8	-0.8653407
26	0xbcf5bda1	-0.029997649
27	0xbe921f29	-0.28539398
28	0xbec94e0b	-0.39317355
29	0x3e811c6f	0.25217006
30	0x3f0f56f8	0.5599208
31	0xbdebbab9	-0.11510224
32	0xbe3c8699	-0.1841072
33	0xbe6429c2	-0.22281554
34	0xbf4fb35f	-0.81133074
35	0xbf91b6cb	-1.1383909
36	0x3ee1684b	0.44024882
37	0xbea80ddb	-0.3282307
38	0xbf0d5b2d	-0.5521725
39	0x3bfe581b	0.007761968
40	0x3e08e71b	0.1336941
41	0x3e774021	0.24145557
42	0xbe58b7b1	-0.21163823
43	0xbd92b3c9	-0.071631975
44	0xbe38af1d	-0.1803555
45	0xbd4450ce	-0.047928624
46	0x3d2f0f55	0.04273923
47	0x3d0757ef	0.033042844
48	0xbf31d039	-0.6945835
49	0x3eabbdfe	0.3354339
50	0x3cf01db5	0.02931104
51	0xbe0a17f7	-0.13485704
52	0x3f71a799	0.9439636
53	0xbdfce7b7	-0.123488836
54	0x3e5a51c6	0.21320257
55	0xbe6b094f	-0.2295277
56	0xbd8299e8	-0.063770115
57	0xbec02417	-0.37527534
58	0x3f82f870	1.0232067
59	0x3f49dea3	0.7885534
60	0x3dcaadd3	0.098964356
61	0xbe71aa3f	-0.236001
62	0xbf2000bf	-0.6250114
63	0x3e11e80e	0.14248678
64	0xbf55c885	-0.83509094
65	0x3f15c888	0.5850911
66	0xbc95d7ae	-0.01829132
67	0xbd6cc00f	-0.05780035
68	0xbe1db784	-0.15402037
69	0xbf7fd844	-0.9993937
70	0xbf33d521	-0.70247084
71	0x3efb8d2c	0.49131143
72	0x3e7c5f99	0.24645843
73	0x3e3b6ad5	0.18302472
74	0xbeeedca2	-0.46652704
75	0x3e87a788	0.26495004
76	0x3ec93c81	0.39303973
77	0xbeb8a4e4	-0.36063302
78	0xbe8611a7	-0.26185343
79	0x3f6f018a	0.93361723
80	0x367223d3	3.6081663e-06
81	0x3bb3a84b	0.0054827086
82	0xbc5475b4	-0.012967516
83	0x3add1336	0.0016866687
84	0x39a4132f	0.0003129481
85	0xbb99fe35	-0.0046994933
86	0x3b728d85	0.0037010622
87	0xbbc84054	-0.006111184
88	0xbc82a717	-0.015948815
89	0xbc5f4a34	-0.013628531
90	0x3c0d29c1	0.008615912
91	0x3baee5b8	0.005337443
92	0xbb7eb3bd	-0.0038864457
93	0xb7f85eef	-2.960811e-05
94	0xbc8d89a0	-0.017277539
95	0x3ab18ae8	0.0013545426
96	0x3c951e86	0.018203031
97	0xbbfb078d	-0.007660812
98	0x3c07b1c5	0.00828213
99	0x3c64df46	0.013969248
100	0xbe940d31	-0.28916314
101	0xbefd8abe	-0.49519914
102	0xbe56ece3	-0.20988803
103	0xbc90f2ed	-0.017693961
104	0xbec8145a	-0.39078027
105	0x3dd856bf	0.105634205
106	0xbd1566d7	-0.03647503
107	0x3bdaf454	0.006681958
108	0xbf038ce5	-0.51386863
109	0xbe994273	-0.2993351
110	0x3f44941b	0.7678849
111	0x3f172610	0.59042454
112	0xbf0f2226	-0.5591148
113	0xbeab8141	-0.3349705
114	0x3d28c81e	0.04120647
115	0x3e49b993	0.19699697
116	0xbec9e7d0	-0.3943467
117	0xbeae30c8	-0.34021592
118	0x3f2cef35	0.675525
119	0xbf311c1c	-0.69183517
120	0xbec899e5	-0.39179912
121	0xbf0081c2	-0.50197995
122	0x3f05e547	0.52302974
123	0xbe276020	-0.16345263
124	0x3f4cd408	0.80011034
125	0x3d4141c6	0.047181867
126	0xbd1730d9	-0.03691182
127	0x3d3a5341	0.045489553
128	0x3f10749d	0.5642794
129	0xbeb7567f	-0.3580818
130	0x3dff2c88	0.124596655
131	0x3f7fe8ec	0.99964786
132	0x3e84b5fb	0.2592009
133	0x3dcddb58	0.10051602
134	0x3e7e4aa5	0.24833162
135	0xbebc8cae	-0.3682608
136	0xbedc3428	-0.43008542
137	0xbf380295	-0.7187894
138	0xbdd5a381	-0.104315765
139	0x3dd444cb	0.10364684
140	0x3ebe4c37	0.37167522
141	0x3dc53c91	0.09630693
142	0xbea4e228	-0.32203794
143	0xbda18260	-0.07886195
144	0xbf4a7dfb	-0.7909848
145	0x3e61fa31	0.22068097
146	0xbd3a6c7c	-0.045513615
147	0x3e206a53	0.1566556
148	0x3f3760b6	0.71631944
149	0xbd2f608f	-0.042816695
150	0x3e0a3d17	0.13499866
151	0xbf1fac7b	-0.6237256
152	0xbf35bddb	-0.7099282
153	0xbe29b6f7	-0.16573702
154	0xbeaa036c	-0.33205736
155	0x3f05b6e8	0.5223222
156	0x3e016292	0.12635258
157	0xbe3bc2b6	-0.18335995
158	0xbe7eefab	-0.24896114
159	0x3f1b8542	0.6075021
160	0x3dafe733	0.085890196
161	0xbf020da1	-0.50802046
162	0x3e9aac01	0.30209354
163	0xbdfc5836	-0.123215124
164	0x3ebe7429	0.37197998
165	0xbe927590	-0.28605318
166	0x3be8c68b	0.0071037463
167	0x3d939290	0.07205689
168	0xbf8f6509	-1.1202708
169	0xbe959c3d	-0.29220763
170	0x3e9680d2	0.29395157
171	0xbea36520	-0.3191309
172	0x3eab9cca	0.33518058
173	0xbdeaf331	-0.11472166
174	0x3f28fc49	0.66009957
175	0x3eb47fb6	0.35253686
176	0xbe010b2e	-0.12601921
177	0x3e39817a	0.18115798
178	0xbf7fb068	-0.9987855
179	0x3def98aa	0.1169904
180	0x3dd693ea	0.10477431
181	0x3e0b9756	0.13631949
182	0xbf1cf127	-0.6130547
183	0x3ddcbd7c	0.10778329
184	0xbfcaab79	-1.5833579
185	0x3f03209f	0.5122165
186	0x3deb6cbc	0.11495349
187	0x3e684d12	0.2268565
188	0x3e2a2909	0.16617216
189	0xbeadfaa2	-0.3398028
190	0xbe30b537	-0.17256628
191	0x3e90447b	0.28177246
192	0x3f0dba1e	0.5536212
193	0x3c0bd224	0.008533988
194	0xbed316c1	-0.41228297
195	0xbf31c644	-0.69443154
196	0xbef9b267	-0.48768923
197	0xbead4f34	-0.3384949
198	0xbeebf91e	-0.460885
199	0xbea28b3e	-0.31746858
200	0x3ebec3c4	0.37258732
201	0x3f1a2870	0.6021795
202	0xbf36d8a9	-0.7142435
203	0x3da4a486	0.08039193
204	0xbfb13b8d	-1.3846298
205	0x3ec885ec	0.39164674
206	0xbcecef97	-0.02892284
207	0x3e9d7282	0.30751425
208	0x3e314912	0.1731303
209	0x3ebc0781	0.36724475
210	0x3dfcbff8	0.12341303
211	0x3c99d15a	0.018776584
212	0xbbcff999	-0.006346893
213	0xbeb2e6e7	-0.3494179
214	0x3f689266	0.90848386
215	0xbf1fc465	-0.6240905
216	0x3df4cbd3	0.11952939
217	0xbc366d24	-0.01113442
218	0xbf10346d	-0.56329995
219	0xbe725dd0	-0.23668599
220	0xbea90dca	-0.33018333
221	0x3f90741e	1.1285436
222	0x3e03ad15	0.12858994
223	0x3ba069eb	0.004895439
224	0x3dfe7d33	0.124262236
225	0x3f2fb5c3	0.6863672
226	0xbbbbd0dc	-0.005731685
227	0x3e4184fc	0.18898386
228	0xbf0afc95	-0.5429166
229	0x3f500473	0.8125679
230	0xbe9abf3a	-0.3022402
231	0x3f583791	0.8445979
232	0xbd87c44e	-0.06629239
233	0x3ebb8dae	0.3663153
234	0xbe8d0736	-0.27544564
235	0x3f3ab696	0.72934854
236	0x3e89cc27	0.26913568
237	0xbf1ab68f	-0.6043481
238	0xbe9b2340	-0.3030033
239	0xbea3248c	-0.3186382
240	0x3f831b9f	1.0242804
241	0x3f427340	0.7595711
242	0x3e8260c3	0.25464448
243	0xbd5a21fa	-0.05325506
244	0x3f134517	0.575273
245	0xbe2be92a	-0.16788164
246	0xbc7c8b53	-0.015414077
247	0xbda2b95c	-0.07945511
248	0xbe5e497b	-0.21707718
249	0xbf258ba6	-0.6466621
250	0x3f1ea76c	0.61974216
251	0x3f7c0134	0.98439336
252	0xbed992df	-0.42494866
253	0xbe676a66	-0.22599182
254	0x3c957073	0.018242097
255	0xbd7bb6e4	-0.061453715

fck_0_0.bias f4 [20]
0	0xbf4a2618	-0.78964376
1	0x3f2b429d	0.6689852
2	0x3e8402e8	0.25783467
3	0xbf2cc0a5	-0.6748145
4	0xbba87496	-0.0051408513
5	0x3f5b11f9	0.855743
6	0xbbcbc830	-0.0062189326
7	0xbdfbaa5c	-0.12288353
8	0x3e126b2c	0.14298695
9	0xbed05d45	-0.4069616
10	0x3e5bf74a	0.21481052
11	0xbf02d90f	-0.51112455
12	0x3f0f4aac	0.55973315
13	0xbf5a0468	-0.85162973
14	0xbe8535db	-0.2601765
15	0x3f0420d7	0.5161261
16	0xbeeb4aa4	-0.45955384
17	0x3f552252	0.83255494
18	0xbce54cbc	-0.027990691
19	0xbfa01e5c	-1.2509265
